…
2022-10-27 13:21:49.009771: I tensorflow/core/common_runtime/gpu/gpu_device.cc:1510] Created device /job:localhost/replica:0/task:0/device:GPU:0 with 15381 MB memory:  -> device: 0, name: Tesla P100-PCIE-16GB, pci bus id: 0000:00:04.0, compute capability: 6.0
Found 20000 validated image filenames belonging to 2 classes.
Found 2500 validated image filenames belonging to 2 classes.
Model: "sequential"
_________________________________________________________________
Layer (type)                 Output Shape              Param #   
=================================================================
conv2d (Conv2D)              (None, 30, 30, 32)        896       
_________________________________________________________________
max_pooling2d (MaxPooling2D) (None, 15, 15, 32)        0         
_________________________________________________________________
conv2d_1 (Conv2D)            (None, 13, 13, 32)        9248      
_________________________________________________________________
max_pooling2d_1 (MaxPooling2 (None, 6, 6, 32)          0         
_________________________________________________________________
flatten (Flatten)            (None, 1152)              0         
_________________________________________________________________
dense (Dense)                (None, 128)               147584    
_________________________________________________________________
dropout (Dropout)            (None, 128)               0         
_________________________________________________________________
dense_1 (Dense)              (None, 1)                 129       
=================================================================
Total params: 157,857
Trainable params: 157,857
Non-trainable params: 0
_________________________________________________________________
from tensorflow.keras.callbacks import EarlyStopping, ModelCheckpoint, ReduceLROnPlateau

earlystop_cb = EarlyStopping(patience=10, restore_best_weights=True)
reduce_lr_cb = ReduceLROnPlateau(factor=0.5, patience=5, monitor='val_loss', min_lr=0.00001)
…
# Step 5 - Output Layer
#cnn.add(tf.keras.layers.Dense(units=1, activation='sigmoid'))
## For Binary Classification
cnn.add(Dense(1, kernel_regularizer=tf.keras.regularizers.l2(0.01),activation
             ='linear'))
cnn.summary()
Found 20000 validated image filenames belonging to 2 classes.
Found 2500 validated image filenames belonging to 2 classes.
Model: "sequential_1"
_________________________________________________________________
Layer (type)                 Output Shape              Param #   
=================================================================
conv2d_2 (Conv2D)            (None, 32, 32, 32)        896       
_________________________________________________________________
max_pooling2d_2 (MaxPooling2 (None, 16, 16, 32)        0         
_________________________________________________________________
conv2d_3 (Conv2D)            (None, 16, 16, 32)        9248      
_________________________________________________________________
max_pooling2d_3 (MaxPooling2 (None, 8, 8, 32)          0         
_________________________________________________________________
conv2d_4 (Conv2D)            (None, 8, 8, 32)          9248      
_________________________________________________________________
max_pooling2d_4 (MaxPooling2 (None, 4, 4, 32)          0         
_________________________________________________________________
flatten_1 (Flatten)          (None, 512)               0         
_________________________________________________________________
dense_2 (Dense)              (None, 128)               65664     
_________________________________________________________________
dense_3 (Dense)              (None, 1)                 129       
=================================================================
Total params: 85,185
Trainable params: 85,185
Non-trainable params: 0
_________________________________________________________________
 #Part 3 - Training the CNN

# Compiling the CNN
cnn.compile(optimizer = 'adam', loss = 'hinge', metrics = ['accuracy'])

# Training the CNN on the Training set and evaluating it on the Test set
…
